…
trusted":true,"execution":{"iopub.status.busy":"2024-11-21T07:06:32.209207Z","iopub.execute_input":"2024-11-21T07:06:32.209939Z","iopub.status.idle":"2024-11-21T07:06:32.2835Z","shell.execute_reply.started":"2024-11-21T07:06:32.209906Z","shell.execute_reply":"2024-11-21T07:06:32.282629Z"}},"outputs":[{"execution_count":67,"output_type":"execute_result","data":{"text/plain":"SpeechRecognitionModel(\n  (transforms): Sequential(\n    (0): Resample()\n    (1): MelSpectrogram(\n      (spectrogram): Spectrogram()\n      (mel_scale): MelScale()\n    )\n  )\n  (cnn): CNN2DFeatureExtractor(\n    (conv1): Conv2d(1, 32, kernel_size=(11, 11), stride=(1, 1), padding=(5, 5), bias=False)\n    (bn1): BatchNorm2d(32, eps=1e-05, momentum=0.1, affine=True, track_running_stats=True)\n    (relu): ReLU(inplace=True)\n    (maxpool): MaxPool2d(kernel_size=3, stride=2, padding=1, dilation=1, ceil_mode=False)\n    (conv2): Conv2d(32, 32, kernel_size=(11, 11), stride=(1, 1), padding=(5, 5), bias=False)\n    (bn2): BatchNorm2d(32, eps=1e-05, momentum=0.1, affine=True, track_running_stats=True)\n    (conv3): Conv2d(32, 32, kernel_size=(11, 11), stride=(1, 1), padding=(5, 5), bias=False)\n    (bn3): BatchNorm2d(32, eps=1e-05, momentum=0.1, affine=True, track_running_stats=True)\n    (maxpool2): MaxPool2d(kernel_size=3, stride=(2, 1), padding=1, dilation=1, ceil_mode=False)\n  )\n  (transformers): TransformerModel(\n    (embedding): Embedding(42, 640, padding_idx=0)\n    (pos_encoder): PositionalEncoding(\n      (dropout): Dropout(p=0.1, inplace=False)\n    )\n    (transformer): Transformer(\n      (encoder): TransformerEncoder(\n        (layers): ModuleList(\n          (0-3): 4 x TransformerEncoderLayer(\n            (self_attn): MultiheadAttention(\n              (out_proj): NonDynamicallyQuantizableLinear(in_features=640, out_features=640, bias=True)\n            )\n            (linear1): Linear(in_features=640, out_features=640, bias=True)\n            (dropout): Dropout(p=0.1, inplace=False)\n            (linear2): Linear(in_features=640, out_features=640, bias=True)\n            (norm1): LayerNorm((640,), eps=1e-05, elementwise_affine=True)\n            (norm2): LayerNorm((640,), eps=1e-05, elementwise_affine=True)\n            (dropout1): Dropout(p=0.1, inplace=False)\n            (dropout2): Dropout(p=0.1, inplace=False)\n          )\n        )\n        (norm): LayerNorm((640,), eps=1e-05, elementwise_affine=True)\n      )\n      (decoder): TransformerDecoder(\n        (layers): ModuleList(\n          (0): TransformerDecoderLayer(\n            (self_attn): MultiheadAttention(\n              (out_proj): NonDynamicallyQuantizableLinear(in_features=640, out_features=640, bias=True)\n            )\n            (multihead_attn): MultiheadAttention(\n              (out_proj): NonDynamicallyQuantizableLinear(in_features=640, out_features=640, bias=True)\n            )\n            (linear1): Linear(in_features=640, out_features=640, bias=True)\n            (dropout): Dropout(p=0.1, inplace=False)\n            (linear2): Linear(in_features=640, out_features=640, bias=True)\n            (norm1): LayerNorm((640,), eps=1e-05, elementwise_affine=True)\n            (norm2): LayerNorm((640,), eps=1e-05, elementwise_affine=True)\n            (norm3): LayerNorm((640,), eps=1e-05, elementwise_affine=True)\n            (dropout1): Dropout(p=0.1, inplace=False)\n            (dropout2): Dropout(p=0.1, inplace=False)\n            (dropout3): Dropout(p=0.1, inplace=False)\n          )\n        )\n        (norm): LayerNorm((640,), eps=1e-05, elementwise_affine=True)\n      )\n    )\n  )\n  (cls): Linear(in_features=640, out_features=42, bias=True)\n)"},"metadata":{}}],"execution_count":67},{"cell_type":"code","source":"_, metric_test = evaluate(model, test_loader, loss_fn, metric)\nmetric_test","metadata":{"trusted":true,"execution":{"iopub.status.busy":"2024-11-21T07:37:16.203149Z","iopub.execute_input":"2024-11-21T07:37:16.203618Z","iopub.status.idle":"2024-11-21T07:37:20.81063Z","shell.execute
…
